example/cv-dnn/FastestDet_raw.onnx (onnx, 953218 bytes, 140 tensors)

758 f4 [24, 3, 3, 3]
0.082504354 0.090992205 -0.22134276 -0.19316155 0.22798385 0.09237265 -0.30232182 -0.10658617
0.14152037 -0.66115576 -0.5576236 -0.78647345 -1.2234489 -0.80185515 -0.6545631 -1.3440216
-1.0480433 -0.54339594 0.8999435 0.5451105 0.7224483 0.95104885 0.8027673 0.5748114
1.38443 1.0421863 0.78238845 0.25746194 -0.19983524 -0.18683954 -0.2170523 -0.4461099
0.0968916 -0.045175135 0.058428902 0.37434456 0.52395695 -0.14353786 -0.24665196 -0.23049751
-0.72105026 -0.11432997 -0.20723028 0.0062814816 0.62200516 0.5321052 0.14190564 -0.034631453
-0.0025013413 -0.49812478 -0.2308013 -0.16685584 -0.09727845 0.31952584 1.3335445 1.2989068
1.1164494 0.86319196 0.102183245 0.57636136 1.4613749 1.4854231 0.9063495 -2.3501215
-2.6881716 -1.5685606 -2.478204 -3.5786822 -1.6859993 -1.7003692 -2.056815 -1.3253062
0.7139827 1.2493408 0.47019035 1.6243808 2.4012833 1.2215614 0.20519225 0.811262
0.27632657 -0.08059239 -0.102326035 -0.0468953 -0.10033592 -0.12226511 -0.07260285 -0.04420317
-0.06198647 -0.020541737 0.1053655 0.10272289 0.0684432 0.09269746 0.09529636 0.05684536
0.07349955 0.0639639 0.041536987 -0.008815824 0.0043203887 -0.019817987 0.0051283315 0.030201893
-0.006672857 -0.03262879 -0.012408603 -0.039314482 0.2651115 -0.14188196 -0.14817701 0.22804363
0.004824228 -0.15282589 0.22506632 -0.016786054 -0.18441825 0.5221462 -0.24723999 -0.37021878
0.47271168 -0.045121074 -0.3545656 0.42421705 -0.028395293 -0.33920813 0.46631318 -0.23691621
-0.30928597 0.39276704 -0.069866024 -0.2990508 0.44188473 -0.022370813 -0.34215227 -0.005274005
0.064387426 -0.0063563585 0.045202002 0.06973569 0.032474805 0.024745895 0.08062055 0.030668678
0.024924755 0.07816515 0.025717188 0.054216318 0.05642231 0.02798935 0.003055082 0.04295864
0.001388174 0.04117225 0.102372825 0.07517638 0.04966098 0.066088155 0.059641685 -0.019874949
0.058968678 0.036083084 -0.2268247 0.034993652 0.31509694 -0.28822103 -0.012005509 0.32246438
-0.32914582 -0.19144946 0.360786 -0.3650839 -0.0050824806 0.49340686 -0.3934746 -0.08280174
0.48806253 -0.36860377 -0.2889556 0.48242807 -0.1882584 -0.028007114 0.33512124 -0.16480991
-0.108588286 0.28455812 -0.18982881 -0.27278474 0.33333954 -0.027893607 0.38693014 0.37863737
-0.6384281 0.15433706 0.16079111 -0.6110539 -0.10944153 0.44929117 -0.13356037 -0.059165094
-0.13763452 -0.011047227 -0.0071610957 -0.121449456 0.2798092 -0.21312656 0.08440282 0.4835055
0.29712975 -0.2504262 0.40368134 0.15111907 -0.085932426 0.6462192 0.1033271 0.38093776
-0.060911573 -0.24639243 -0.12574147 0.07339799 -0.058268283 -0.27671906 0.068955615 0.3271424
0.13866961 -0.18119603 -0.53224766 -0.3933465 0.2260602 -0.049470857 -0.35618618 0.32212374
0.5920576 0.3448979 -0.33692217 -0.7021835 -0.67832285 0.27119857 -0.08515073 -0.47742245
0.66393244 0.8151762 0.54511243 -0.6230396 0.03490977 0.14851238 0.0714172 0.60367614
0.11566877 0.14282641 0.1869257 -0.47953507 -0.7879983 0.14661717 0.120158866 0.116038084
00000000: 0bf8 a83d 1f5a ba3d ada7 62be 24cc 45be
00000010: 9974 693e df2d bd3d edc9 9abe da49 dabd
00000020: b7ea 103e 8141 29bf 6cc0 0ebf 5356 49bf
00000030: f999 9cbf 6146 4dbf 7391 27bf e608 acbf
00000040: 4826 86bf ff1b 0bbf b262 663f 5d8c 0b3f
00000050: 5ff2 383f f077 733f 2882 4d3f d726 133f
00000060: 0135 b13f 5c66 853f 9c4a 483f 0dd2 833e
00000070: 9ca1 4cbe dd52 3fbe f542 5ebe 8468 e4be
00000080: 1a6f c63d 9009 39bd 2553 6f3d 17aa bf3e
00000090: 0b22 063f 97fb 12be 5592 7cbe 8a07 6cbe
000000a0: c096 38bf d525 eabd 2d34 54be e3d4 cd3b
000000b0: bb3b 1f3f 0c38 083f b64f 113e b6d9 0dbd
000000c0: 8bed 23bb 360a ffbe 2d57 6cbe 42dc 2abe
000000d0: ed39 c7bd e498 a33e 96b1 aa3f 9442 a63f
000000e0: d0e7 8e3f 26fa 5c3f 7345 d13d 6b8c 133f
000000f0: 550e bb3f 5822 be3f 8506 683f 6468 16c0
00000100: 010b 2cc0 98c6 c8bf e59a 1ec0 2109 65c0
00000110: d3ce d7bf b3a5 d9bf dba2 03c0 a2a3 a9bf
00000120: 92c7 363f 66ea 9f3f cabc f03e b6eb cf3f
00000130: a0ae 1940 205c 9c3f eb1d 523e deae 4f3f
00000140: ad7a 8d3e 9f0d a5bd 5090 d1bd 4915 40bd
00000150: eb7c cdbd 2166 fabd ceb0 94bd 620e 35bd
00000160: 86e5 7dbd 2547 a8bc dec9 d73d 6160 d23d
00000170: f32b 8c3d 2ad8 bd3d bd2a c33d aed6 683d
00000180: ef86 963d 81ff 823d b022 2a3d 3f70 10bc
00000190: 0c92 8d3b 5559 a2bc 900b a83b f669 f73c
000001a0: fba7 dabb c4a5 05bd 744d 4bbc 3908 21bd
000001b0: b2bc 873e 8149 11be b7bb 17be 4584 693e
000001c0: 8f14 9e3b 647e 1cbe c977 663e e882 89bc
000001d0: 23d8 3cbe 60ab 053f 7b2c 7dbe 518d bdbe
000001e0: 4407 f23e e0d0 38bd 9f89 b5be fa32 d93e
000001f0: 3f9d e8bc b0ac adbe 9ac0 ee3e 2a9a 72be
00000200: bb5a 9ebe c318 c93e eb15 8fbd 301d 99be
00000210: b73e e23e ff42 b7bc 952e afbe 8fd1 acbb
00000220: 8edd 833d 0049 d0bb bc25 393d 96d1 8e3d
00000230: 4d04 053d e7b7 ca3c 631c a53d e13c fb3c
00000240: 002f cc3c 0d15 a03d daac d23c ee11 5e3d
00000250: 151b 673d ec49 e53c c537 483b 66f5 2f3d
00000260: 64f3 b53a 3ca4 283d d8a8 d13d 13f6 993d
00000270: 5069 4b3d 3a59 873d d74a 743d cad0 a2bc
00000280: 2489 713d dbcb 133d bc44 68be 8155 0f3d
00000290: 6354 a13e b591 93be c1b2 44bc 0d1a a53e
000002a0: cd85 a8be 540b 44be f1b8 b83e 47ec babe
000002b0: f08a a6bb d39f fc3e 8175 c9be f593 a9bd
000002c0: 55e3 f93e a2b9 bcbe fdf1 93be d000 f73e
000002d0: cfc6 40be 2d6f e5bc 0395 ab3e eec3 28be
000002e0: 8963 debd 9ab1 913e 7c62 42be 71aa 8bbe
000002f0: 7bab aa3e 2281 e4bc b51b c63e c2dc c13e
00000300: 0670 23bf 890a 1e3e 6da6 243e 076e 1cbf
00000310: e222 e0bd 7e09 e63e 0dc4 08be 1957 72bd
00000320: 10f0 0cbe 6eff 34bc a0a7 eabb 7eba f8bd
00000330: 2743 8f3e d93d 5abe 63db ac3d 088e f73e
00000340: 6421 983e dd37 80be 52af ce3e f5be 1a3e
00000350: 57fd afbd 9f6e 253f 299d d33d 460a c33e
00000360: 6a7e 79bd 4c4e 7cbe 5fc2 00be af51 963d
00000370: b9aa 6ebd 1fae 8dbe 9a38 8d3d 357f a73e
00000380: 68ff 0d3e 748b 39be 6241 08bf b664 c9be
00000390: 537c 673e f4a1 4abd 095e b6be 67ed a43e
000003a0: 1691 173f 7596 b03e 1081 acbe 4cc2 33bf
000003b0: 91a6 2dbf 8ada 8a3e 8263 aebd b770 f4be
000003c0: 7af7 293f 63af 503f 7d8c 0b3f 867f 1fbf
000003d0: 8cfd 0e3d a113 183e 2e43 923d 858a 1a3f
000003e0: c0e3 ec3d 1641 123e 7369 3f3e 9f85 f5be
000003f0: 42ba 49bf d022 163e da15 f63d 60a5 ed3d

759 f4 [24]
0.6709449 0.9508977 1.2161444 0.47606966 0.027151432 0.2801262 0.12500438 -1.7725899
0.23677224 0.16272995 0.17057192 -0.0011078058 0.31707916 0.96934986 0.23530897 -0.0023961754
0.84480065 0.19962204 0.27298248 -0.0038141012 0.33497655 1.7193924 0.25843143 0.13928197
00000000: 0cc3 2b3f 086e 733f 9faa 9b3f 67bf f33e
00000010: ae6c de3c b46c 8f3e 2601 003e 3ae4 e2bf
00000020: 6c74 723e aea2 263e 68aa 2e3e cb33 91ba
00000030: 3358 a23e 5027 783f d6f4 703e 2709 1dbb
00000040: db44 583f b869 4c3e 5cc4 8b3e 00f6 79bb
00000050: 0c82 ab3e 0d15 dc3f 2051 843e ef9f 0e3e

761 f4 [24, 1, 3, 3]
-0.084864415 -0.03724342 -0.019011118 -0.58754265 -0.20225932 0.59692156 -0.54552567 -0.17421643
0.6086826 0.09398481 -0.009048024 -0.019317161 0.11389548 0.06543925 -0.004084869 0.16689354
0.1242616 -0.049344912 -0.09154204 -0.03696331 -0.17886053 -0.057541337 0.005266036 0.19619228
-0.18969028 0.08418077 0.775819 0.4044612 0.18383174 0.037020676 1.3023936 0.4840242
-0.4020771 2.9794486 1.2865893 -0.73189455 -0.024910793 0.07245235 -0.012853702 0.06480952
0.037428275 -0.09046404 0.037496675 -0.12310322 -0.40508446 0.052696366 0.027636219 0.03769317
-0.73719144 0.11372342 0.6842219 -0.7976584 -0.05034558 0.8305809 -0.042998567 0.046067007
-0.012667339 0.034986954 -0.013150135 -0.10575505 -0.038002424 -0.13578378 -0.34017178 -0.14665727
0.08705153 0.23899582 -0.15797037 0.23443507 0.6191457 -0.2938492 0.5338125 1.0376183
0.01041677 -0.04208634 0.03753208 -0.05980595 -0.03910763 0.1037718 -0.025430333 0.037114162
0.34948662 -0.043364342 -0.13082713 -0.015728496 -0.035764966 -0.11985537 -0.049221095 -0.014824198
-0.033174947 -0.13654162 0.06871787 -0.046520684 -0.07203637 0.009539839 -0.21146654 -0.20142138
0.12964503 -0.5245112 -0.9460658 -2.9653921e-13 -3.9303885e-13 -4.506197e-13 -2.1452679e-13 -1.7509052e-13
2.9274808e-13 -3.0244654e-13 3.746649e-13 4.188941e-13 0.08351269 -0.11440077 0.08325594 -0.030527228
-0.3602342 -0.413477 -0.056270707 -0.1721494 -0.3840155 -0.022783235 -0.03553084 -0.052091356
-0.01536638 -0.07854326 -0.22354537 -0.0049909186 -0.08260283 -0.21564864 -0.016056538 0.0844172
0.011107926 0.03977991 0.052697618 -0.15916063 0.00088042644 -0.020380458 -0.29394317 5.0261455e-13
2.5390843e-14 -3.1686202e-13 -2.0265606e-13 -4.5358612e-13 1.6928426e-14 -5.9177565e-13 3.7874809e-13 -9.295569e-14
-0.074570365 -0.052816566 -0.06759195 0.44540945 -0.026110377 -0.7047077 0.68866163 -0.27942932
-1.330429 -0.13490735 0.2133462 0.21114108 -0.6028238 0.1392351 1.0988382 -0.25904146
0.052410945 0.9262869 -0.06404153 -0.06398409 -0.099065274 -0.055693083 -0.24534968 -0.3229756
-0.13370161 -0.21257836 -0.25495958 0.022065073 0.09971378 0.06289859 0.11702012 0.11906734
-0.09623348 0.14794132 -0.013227873 -0.37023047 0.036754355 -0.008043063 0.018813895 0.18352284
0.04585539 -0.02864054 0.13452706 0.034359712 0.007481996 0.011461298 -0.050864182 -0.034981955
0.5393316 -0.08024317 -0.5545566 0.49021095 -0.02695744 -0.56030685 -0.0419856 0.035653748
0.0682421 0.08407902 -0.009152099 -0.09992026 0.015719304 -0.094929054 -0.38609222 -0.011743667
0.0484567 0.014163758 0.030956076 0.17453595 0.13724393 -0.019683607 0.13377844 0.11232722
00000000: 65cd adbd 8e8c 18bd 34bd 9bbc 3269 16bf
00000010: 111d 4fbe dacf 183f 92a7 0bbf cb65 32be
00000020: 9fd2 1b3f 1c7b c03d 2a3e 14bc 063f 9ebc
00000030: 0942 e93d 0305 863d 5dda 85bb 24e6 2a3e
00000040: de7c fe3d e41d 4abd 657a bbbd d766 17bd
00000050: 3727 37be 77b0 6bbd b68e ac3b a1e6 483e
00000060: 2b3e 42be f866 ac3d 139c 463f 8a15 cf3e
00000070: 633e 3c3e fea2 173d d5b4 a63f 05d2 f73e
00000080: 0ddd cdbe 49af 3e40 f5ae a43f 715d 3bbf
00000090: b811 ccbc e661 943d 5598 52bc dbba 843d
000000a0: 644e 193d 3645 b9bd 1d96 193d 8a1d fcbd
000000b0: 3b67 cfbe 25d8 573d 5a65 e23c 2764 1a3d
000000c0: 94b8 3cbf d3e7 e83d 2b29 2f3f 5733 4cbf
000000d0: 2b37 4ebd f3a0 543f 441f 30bd c2b0 3c3d
000000e0: ac8a 4fbc 7b4e 0f3d aa73 57bc 1b96 d8bd
000000f0: 6ea8 1bbd e70a 0bbe ff2a aebe 532d 16be
00000100: 1348 b23d 52bb 743e fcc2 21be bf0f 703e
00000110: 5580 1e3f 6773 96be f0a7 083f add0 843f
00000120: 1aab 2a3c ba62 2cbd 3dbb 193d 15f7 74bd
00000130: 522f 20bd 4f86 d43d 4653 d0bc 0505 183d
00000140: e9ef b23e cf9e 31bd 8cf7 05be 0cd9 80bc
00000150: 497e 12bd bb76 f5bd 0f9c 49bd 31e1 72bc
00000160: 74e2 07bd 91d1 0bbe f4bb 8c3d 798c 3ebd
00000170: ce87 93bd fc4c 1c3c af8a 58be 6841 4ebe
00000180: abc1 043e 5e46 06bf 5e31 72bf ceef a6aa
00000190: de42 ddaa 25ad fdaa 2389 71aa 6822 45aa
000001a0: 72cd a42a 2443 aaaa e7ea d22a 01d1 eb2a
000001b0: b408 ab3d f34a eabd 1782 aa3d 3d14 fabc
000001c0: 9e70 b8be 42b3 d3be 1d7c 66bd ef47 30be
000001d0: ae9d c4be e8a3 babc c988 11bd bf5d 55bd
000001e0: 45c3 7bbc 4adb a0bd 14e9 64be dc8a a3bb
000001f0: ac2b a9bd ffd2 5cbe 0089 83bc ede2 ac3d
00000200: 05fe 353c 42f0 223d 75d9 573d 01fb 22be
00000210: 6bcc 663a ebf4 a6bc b87f 96be 3279 0d2b
00000220: 4cb3 e428 a160 b2aa a22b 64aa a658 ffaa
00000230: 4b7a 9828 ee91 26ab 5a37 d52a 4f51 d1a9
00000240: 59b8 98bd 2f56 58bd a66d 8abd b50c e43e
00000250: 6ee5 d5bc b967 34bf 214c 303f 5c11 8fbe
00000260: 7f4b aabf 2725 0abe 6d77 5a3e 5e35 583e
00000270: a952 1abf a593 0e3e bba6 8c3f 15a1 84be
00000280: dcac 563d 2321 6d3f 3528 83bd 170a 83bd
00000290: bce2 cabd 6e1e 64bd f23c 7bbe 0f5d a5be
000002a0: 13e9 08be 24ae 59be 108a 82be d0c1 b43c
000002b0: bd36 cc3d fad0 803d 3fa8 ef3d 94d9 f33d
000002c0: 0f16 c5bd ee7d 173e b8b9 58bc d98e bdbe
000002d0: bc8b 163d 0dc7 03bc 991f 9a3c 69ed 3b3e
000002e0: ddd2 3b3d 919f eabc 76c1 093e c5bc 0c3d
000002f0: 882b f53b 2bc8 3b3c f656 50bd 3d49 0fbd
00000300: a311 0a3f 8856 a4bd 6cf7 0dbf eefc fa3e
00000310: d9d5 dcbc 4570 0fbf 18f9 2bbd aa09 123d
00000320: 84c2 8b3d 9f31 ac3d aff2 15bc fea2 ccbd
00000330: c5c5 803c 2a6a c2bd e1ad c5be 8268 40bc
00000340: 887a 463d 1b0f 683c 9997 fd3c 8db9 323e
00000350: ac89 0c3e 843f a1bc 37fd 083e d00b e63d

762 f4 [24]
0.29443124 -0.32090843 -0.4119473 -2.5294337 0.15081927 -0.1714875 0.21053103 -0.09502833
-0.15556367 0.33255067 0.27817696 1.0282141e-07 0.14336279 0.50092757 0.115822054 1.0117744e-07
1.345682 -0.027137289 0.35395074 -0.047742546 -0.15982242 0.31460488 0.22223456 -0.26974714
00000000: b1bf 963e 1c4e a4be c2ea d2be 3ee2 21c0
00000010: 5e70 1a3e 6b9a 2fbe 7295 573e 379e c2bd
00000020: 154c 1fbe 1544 aa3e 366d 8e3e abce dc33
00000030: b2cd 123e ca3c 003f 1d34 ed3d e346 d933
00000040: 4f3f ac3f 054f debc 0839 b53e b08d 43bd
00000050: 7da8 23be e413 a13e 7591 633e 4c1c 8abe

764 f4 [24, 24, 1, 1]
-0.04492501 0.07904862 0.059348844 0.015379872 -0.007632935 0.016835678 0.024497712 -0.028821291
-0.026913052 0.09496869 0.015458206 -8.0741875e-13 -0.2952417 -0.11877834 0.009228765 -7.323523e-13
-0.03278237 0.22236638 -0.01650533 -0.002086551 0.034573846 -0.0724308 -0.022903223 -0.022044843
0.003374594 0.22848092 0.11366208 0.03438565 -0.04766844 -0.00745326 0.029324705 0.052235324
-0.025063239 0.035432134 1.6203542 4.67486e-12 -0.28318992 -0.31357485 0.13703236 1.2799656e-12
-0.19843332 0.08635419 -0.035136484 0.052128337 -0.021150844 -0.17886792 0.022206323 -0.14681576
0.08388738 0.02554534 0.4055825 0.046336617 0.05129435 -0.095001556 0.042729966 0.0070679868
-0.038490795 0.07924948 -0.31148964 -1.0692532e-12 0.027357262 0.010942003 0.08171636 -4.9857037e-13
-0.4807217 -0.020780688 0.01894436 0.02474891 -0.016953906 0.030465174 0.020909077 -0.03656921
-0.028211912 -0.4039605 -0.01867875 0.18837368 0.22264957 0.109411106 0.40252072 0.105639786
0.06660389 0.16585225 -0.13296433 -1.798864e-12 0.2611291 0.6975974 -0.15769818 2.553263e-12
-0.028514089 0.12175986 -1.1122999 0.012839636 0.023123788 -0.045072455 0.08524056 -0.97582185
0.023297831 -0.008358826 0.04998976 0.82228786 -0.08274508 -0.024703832 -0.0013358749 0.010722857
0.0286826 -0.029969761 0.09788109 2.4856072e-13 0.062990606 -0.0042310343 0.021270346 -4.0701356e-13
-0.012368697 -0.023708915 -0.06987727 -0.00971766 0.009883154 -0.01979214 -0.031237686 -0.03473634
0.28390244 0.15811913 0.06215131 -0.021098714 0.035682067 0.3464851 -0.08100411 0.13563138
-0.07153499 -0.04547837 0.030104289 -2.6208558e-12 -0.16581179 -0.23334745 0.08914564 -1.2523057e-12
0.044775542 -0.026254464 0.51196724 -0.08481718 -0.09697775 0.6421338 -0.036831588 0.34149978
-0.04565886 0.0957081 0.05530344 0.041077394 0.0119993705 0.7976675 -0.035655033 0.2882576
0.040223546 -0.11615684 -0.139524 -8.3801873e-13 0.06969624 -0.00017310535 -0.02600906 1.2116126e-12
0.018291809 0.011698803 -0.043583058 -0.078806244 -0.4752646 -0.02388091 -0.040254157 -0.032530237
-0.053664614 0.091486394 -0.0111508 -0.007961404 -0.063757256 0.022748372 0.034250163 -0.051776636
0.09386168 0.13047236 -0.027087599 4.2671108e-13 -0.07513463 -0.04951359 0.069107555 8.784646e-13
-0.0014715764 -0.0075264336 -0.24424374 -0.00412959 0.020767106 -0.05586919 -0.020337999 -0.013820563
-0.017799372 -0.048093762 0.5475858 -0.054985102 -0.020122811 0.01694016 0.005800804 -0.0083034
0.0062014796 -0.051370572 -0.004003975 -3.2335313e-13 -0.005611177 0.048313633 -0.011093359 -8.6489865e-13
0.10357234 0.0024176051 0.008845977 -0.010537207 -0.0035349575 0.05004693 -0.0093001 0.008810655
0.6510319 0.15057287 -0.21224989 -0.20195471 0.03007068 -0.12517087 -0.053858373 -0.014148494
0.03477032 0.005901744 0.47047678 2.478746e-12 -0.083893776 -0.17616168 -0.05246018 -6.467633e-13
1.1818429 -0.05797346 0.086713515 0.10683895 0.18032841 -0.12871645 0.053648386 0.22034058
-0.043500263 0.22042543 -0.10236386 0.09217146 0.17739291 -0.096563034 0.1946371 -0.15449026
-0.0965671 0.09728057 -0.053074304 -9.226794e-13 -0.065786734 -0.17184742 -0.066725664 -4.580583e-13
00000000: 4a03 38bd 3ee4 a13d c617 733d dcfb 7b3c
00000010: b31d fabb faea 893c 6daf c83c a11a ecbc
00000020: c378 dcbc f27e c23d 6a44 7d3c a744 63ab
00000030: ec29 97be 0f42 f3bd 3f34 173c 8b23 4eab
00000040: ce46 06bd 03b4 633e 3036 87bc 84be 08bb
00000050: 4e9d 0d3d 9956 94bd 8a9f bbbc 6397 b4bc
00000060: 4b28 5d3b e7f6 693e aac7 e83d f8d7 0c3d
00000070: fb3f 43bd 7a3a f4bb 5d3a f03c b5f4 553d
00000080: 6c51 cdbc 4921 113d c467 cf3f 657b a42c
00000090: 45fe 90be e28c a0be 3652 0c3e 9f23 b42b
000000a0: 1b32 4bbe 77da b03d 46eb 0fbd 8684 553d
000000b0: 8944 adbc 2729 37be 09ea b53c df56 16be
000000c0: 26cd ab3d 7644 d13c 82a8 cf3e 77cb 3d3d
000000d0: 061a 523d 2d90 c2bd 9e05 2f3d 929a e73b
000000e0: 86a8 1dbd 8d4d a23d 927b 9fbe e87b 96ab
000000f0: 561c e03c 1646 333c e85a a73d c855 0cab
00000100: 2821 f6be 433c aabc 3431 9b3c 3abe ca3c
00000110: ebe2 8abc 1a92 f93c 8349 ab3c 99c9 15bd
00000120: ab1c e7bc e9d3 cebe 2e04 99bc 08e5 403e
00000130: 40fe 633e ee12 e03d 3217 ce3e ac59 d83d
00000140: 9f67 883d 2cd5 293e cd27 08be e82a fdab
00000150: b7b2 853e be95 323f a27b 21be 7fab 332c
00000160: 6196 e9bc 3c5d f93d d85f 8ebf 565d 523c
00000170: 196e bd3c e59d 38bd 9a92 ae3d 76cf 79bf
00000180: 18db be3c 75f3 08bc 10c2 4c3d 7581 523f
00000190: 4176 a9bd b15f cabc 8618 afba ecae 2f3c
000001a0: c6f7 ea3c 2583 f5bc e275 c83d 60ed 8b2a
000001b0: 3801 813d 7da4 8abb 263f ae3c d620 e5aa
000001c0: 13a6 4abc 3339 c2bc d01b 8fbd d236 1fbc
000001d0: f4ec 213c 2023 a2bc 2de6 ffbc b147 0ebd
000001e0: a95b 913e fbe9 213e 5f92 7e3d 36d7 acbc
000001f0: 5c27 123d 7f66 b13e 7ce5 a5bd f4e2 0a3e
00000200: f080 92bd 8747 3abd 459d f63c 246d 38ac
00000210: 91ca 29be a2f2 6ebe fd91 b63d 113f b0ab
00000220: 8f66 373d 9a13 d7bc 4910 033f a1b4 adbd
00000230: 459c c6bd e162 243f b8dc 16bd 0fd9 ae3e
00000240: c904 3bbd 9c02 c43d dc85 623d c540 283d
00000250: 0299 443c f033 4c3f 030b 12bd 8096 933e
00000260: 72c1 243d a3e3 edbd 61df 0ebe 9de1 6bab
00000270: e7bc 8e3d 9d83 35b9 f410 d5bc f284 aa2b
00000280: b4d8 953c 56ac 3f3c 2684 32bd 2b65 a1bd
00000290: e255 f3be e6a1 c3bc 8be1 24bd 6d3e 05bd
000002a0: 6dcf 5bbd 385d bb3d d8b1 36bc 8c70 02bc
000002b0: 2a93 82bd cb5a ba3c e649 0c3d bd13 54bd
000002c0: 8d3a c03d 8c9a 053e d0e6 ddbc 8c37 f02a
000002d0: 2fe0 99bd c3ce 4abd 4388 8d3d 0c44 772b
000002e0: e9e1 c0ba 4da0 f6bb 081b 7abe 8351 87bb
000002f0: c71f aa3c 17d7 64bd e09b a6bc a56f 62bc
00000300: fdcf 91bc f7fd 44bd 952e 0c3f 0f38 61bd
00000310: 98d8 a4bc 17c6 8a3c ac14 be3b fc0a 08bc
00000320: c835 cb3b f369 52bd c733 83bb 1908 b6aa
00000330: f7dd b7bb 84e4 453d ecc0 35bc 8472 73ab
00000340: bc1d d43d af70 1e3b b7ee 103c 40a4 2cbc
00000350: bfaa 67bb 02fe 4c3d 725f 18bc 915a 103c
00000360: 07aa 263f c62f 1a3e 0958 59be 37cd 4ebe
00000370: c956 f63c cb2c 00be 999a 5cbd 16cf 67bc
00000380: 536b 0e3d 6b63 c13b 55e2 f03e 1e6d 2e2c
00000390: 80d0 abbd ba63 34be 7ce0 56bd 350c 36ab
000003a0: a146 973f 9475 6dbd db96 b13d 61ce da3d
000003b0: 03a8 383e 3fce 03be 69be 5b3d f6a0 613e
000003c0: 552d 32bd 34b7 613e 25a4 d1bd 64c4 bc3d
000003d0: 7da6 353e d7c2 c5bd f34e 473e b232 1ebe
000003e0: f9c4 c5bd 093b c73d 7164 59bd 07db 81ab
000003f0: 32bb 86bd c5f8 2fbe 77a7 88bd 94ee 00ab

765 f4 [24]
0.24056916 -0.065564975 0.20344071 0.4318573 0.08229617 0.08642101 0.03760782 0.21531363
-0.06482085 -0.02294 0.01595034 0.0028592173 0.26903313 0.12851597 -0.06708683 0.06048365
0.47536975 0.05341924 0.10433361 0.089121334 0.3712503 -0.08226197 -0.015883569 0.11969234
00000000: c357 763e ee46 86bd c352 503e 661c dd3e
00000010: e58a a83d 80fd b03d a80a 1a3d 2d7b 5c3e
00000020: cbc0 84bd abec bbbc 4aaa 823c b561 3b3b
00000030: b6be 893e b199 033e d264 89bd b4bd 773d
00000040: aa63 f33e 22ce 5a3d dcac d53d 3f85 b63d
00000050: 8514 be3e f778 a8bd 421e 82bc 4221 f53d

767 f4 [24, 24, 1, 1]
0.16669369 -0.020812478 0.2088481 0.16761394 -0.021206245 0.08050605 -0.02229621 0.10003345
0.011806391 0.0020626283 0.03876437 5.9638877e-13 0.08779766 -0.008542398 -0.027242105 -7.1267224e-14
0.24487694 0.13500525 0.0010894336 0.0050921994 -0.012464595 0.039607663 -0.0062982044 2.0594223e-05
0.185626 -0.042790834 0.123255454 0.03051258 0.24067184 0.5708858 0.20115335 -0.0185064
-0.34517163 -0.077009164 0.12078229 -1.3066171e-12 -0.010773667 0.03855476 -0.32774276 5.716329e-14
0.15458734 0.050067905 -0.0072692577 -0.4134142 -0.1870634 0.14262731 0.17585985 -0.26156226
0.014508404 -0.00049496186 0.026735613 0.0031046197 0.19214243 -0.19746667 -0.66574085 -0.086876325
0.039629098 -0.080269724 0.0036754764 1.1680073e-12 -0.030088635 0.028425984 0.03090762 2.1305833e-13
0.059999563 -0.14772302 0.01842013 0.046991628 0.086301245 -0.2903697 -0.118269175 -0.027266197
0.134383 -0.61882985 0.10138053 0.06744108 0.1429411 0.12653355 0.21152905 -0.21341623
0.120919995 -0.61582303 -0.18121187 8.0445736e-13 0.08092883 0.36617967 -0.03469957 -9.800652e-13
0.1573863 0.098109126 -0.23328064 -0.05001243 -0.5495998 0.31415305 0.25189817 -0.5495658
-0.24446847 0.028771462 -0.14968677 -0.18080328 -0.2704885 -0.03848173 -0.21528253 -0.09369131
0.06828647 -0.08146085 -0.17493229 8.519007e-13 -0.065711506 -0.0054205577 0.060699694 1.2953424e-12
-0.4012739 -0.09783334 -0.080995135 0.01845081 -0.035348456 0.10348877 -0.13878079 0.00019818915
-0.07652565 0.014489352 -0.11128643 -0.07977283 -2.4133058e-05 -0.023870388 0.002751376 -0.060143817
0.0016410328 0.006124192 -0.030755764 6.0804565e-14 -0.046964947 0.0005308371 0.007166402 4.674284e-14
-0.108031966 -0.07218538 0.010553848 -0.0054348363 0.0041657034 -0.015194927 0.00512671 -0.0020916928
0.045316752 0.14142813 0.08936976 0.065185614 -0.30299956 0.2961726 -0.25043184 0.05287625
-0.26122242 0.15023832 0.07007781 5.29062e-13 -0.020021345 -0.49635148 -0.20973091 1.2633878e-12
0.13838461 0.09219703 0.1378383 -0.08203193 0.29230136 0.11670841 -0.42750728 0.24515651
0.08333333 0.22016804 0.12510544 0.081918865 -0.052566163 -0.0089581795 -0.10025061 0.108442135
-0.3270075 0.17809896 -0.03426559 -8.926865e-13 0.13708754 -0.28963137 -0.2900201 7.779492e-13
0.04050364 0.063466065 0.09632842 -0.29809308 0.18510544 0.13697186 -0.10283197 0.14119187
-0.06328149 -0.034934882 0.008737885 -0.05378945 -0.667769 -0.2179637 0.2557653 -0.08816972
0.0002194444 -0.08846316 -0.0039824643 -9.232828e-13 -0.10527949 -0.11267236 0.07141856 -6.9177295e-15
-0.07078963 0.20119466 0.1530998 0.05014808 -0.0819744 -0.1018757 -0.0996673 0.07979381
0.060111403 0.123991065 0.05895296 0.07843922 -0.37076664 0.19189873 -0.37958163 0.15136075
0.07511143 -0.04885325 0.016789664 -8.8050536e-13 0.04676621 0.050835807 0.102103755 -4.1033052e-13
0.022996921 0.044189975 -0.0477101 0.14178401 -0.060209226 0.16002455 -0.3274889 -0.037396815
0.20561618 0.042975184 0.029410409 0.07813358 0.102945596 0.06972454 -0.13841861 0.04310729
0.224199 0.07178756 0.036454827 3.1238548e-13 0.12408057 -0.009201563 -0.24344517 -1.595959e-12
00000000: c0b1 2a3e ee7e aabc 47dc 553e fda2 2b3e
00000010: b8b8 adbc 5be0 a43d 8ba6 b6bc 56de cc3d
00000020: 986f 413c 292d 073b 63c7 1e3d 57de 272b
00000030: 42cf b33d 6af5 0bbc d62a dfbc c27a a0a9
00000040: 05c1 7a3e d13e 0a3e 53cb 8e3a 77dc a63b
00000050: 4d38 4cbc a53b 223d 2b61 cebb c2c1 ac37
00000060: be14 3e3e 7145 2fbd 5b6d fc3d 85f5 f93c
00000070: ae72 763e 9225 123f 25fb 4d3e bc9a 97bc
00000080: 56ba b0be fbb6 9dbd b55c f73d d8e3 b7ab
00000090: 0984 30bc 99eb 1d3d e6cd a7be 65b8 8029
000000a0: 254c 1e3e 0114 4d3d f432 eebb 07ab d3be
000000b0: 8c8d 3fbe e50c 123e 9b14 343e 7deb 85be
000000c0: a8b4 6d3c 54c0 01ba a504 db3c e076 4b3b
000000d0: fcc0 443e b434 4abe fe6d 2abf 37ec b1bd
000000e0: 1f52 223d 7464 a4bd 43e0 703b e661 a42b
000000f0: 717c f6bc 9cdd e83c fa31 fd3c e2e1 6f2a
00000100: 1ac2 753d b444 17be d0e5 963c 4b7a 403d
00000110: b5be b03d 56ab 94be 1c37 f2bd 5c5d dfbc
00000120: b29b 093e a26b 1ebf 98a0 cf3d 8d1e 8a3d
00000130: 275f 123e 0392 013e 129b 583e c989 5abe
00000140: e7a4 f73d 94a6 1dbf 9b8f 39be 436f 622b
00000150: 04be a53d e77b bb3e 2321 0ebd 92ee 89ab
00000160: e029 213e 70ed c83d 1fe1 6ebe d5d9 4cbd
00000170: 93b2 0cbf abd8 a03e ccf8 803e 58b0 0cbf
00000180: f155 7abe 21b2 eb3c 7d47 19be 7f24 39be
00000190: 787d 8abe 059f 1dbd 0673 5cbe 3be1 bfbd
000001a0: c7d9 8b3d f2d4 a6bd 7321 33be eac9 6f2b
000001b0: c193 86bd ef9e b1bb 3ea0 783d a14d b62b
000001c0: c673 cdbe d95c c8bd c7e0 a5bd 2726 973c
000001d0: 8bc9 10bd ecf1 d33d 8d1c 0ebe ffd0 4f39
000001e0: 7bb9 9cbd bf64 6d3c 24ea e3bd f05f a3bd
000001f0: 5971 cab7 d58b c3bc 6e50 343b 5d59 76bd
00000200: ec17 d73a 72ad c83b 83f3 fbbc 72eb 8829
00000210: 515e 40bd e027 0b3a 23d4 ea3b d382 5229
00000220: dd3f ddbd eed5 93bd 0cea 2c3c b616 b2bb
00000230: 7480 883b 25f4 78bc f6fd a73b c814 09bb
00000240: 0f9e 393d 89d2 103e 7e07 b73d 0980 853d
00000250: c222 9bbe efa3 973e 9a38 80be c494 583d
00000260: f2be 85be 13d8 193e f484 8f3d efea 142b
00000270: ce03 a4bc c821 febe b3c3 56be 58ce b12b
00000280: b2b4 0d3e ccd1 bc3d 7c25 0d3e 5b00 a8bd
00000290: 86a8 953e d204 ef3d 3ce2 dabe 4f0a 7b3e
000002a0: aaaa aa3d bb73 613e a41b 003e 14c5 a73d
000002b0: 9e4f 57bd 54c5 12bc 3150 cdbd e916 de3d
000002c0: 876d a7be 935f 363e 135a 0cbd d744 7bab
000002d0: ad60 0c3e 904a 94be 847d 94be 26f9 5a2b
000002e0: 25e7 253d 7ffa 813d d647 c53d a89f 98be
000002f0: 488c 3d3e 5a42 0c3e 9199 d2bd 9a94 103e
00000300: ba99 81bd e117 0fbd 5929 0f3c 5452 5cbd
00000310: e9f2 2abf e031 5fbe abf3 823e 5392 b4bd
00000320: a81a 6639 2c2c b5bd 557f 82bb c5f0 81ab
00000330: c69c d7bd c4c0 e6bd e543 923d cb3c f9a7
00000340: 27fa 90bd f905 4e3e 32c6 1c3e 1368 4d3d
00000350: 32e2 a7bd 35a4 d0bd 5f1e ccbd f06a a33d
00000360: 6037 763d 07ef fd3d a978 713d bea4 a03d
00000370: 20d5 bdbe 1a81 443e 8658 c2be 50fe 1a3e
00000380: 05d4 993d 581a 48bd 7a8a 893c 19d7 77ab
00000390: ed8d 3f3d 3539 503d c61b d13d dcfe e6aa
000003a0: 0a64 bc3c 8c00 353d aa6b 43bd d42f 113e
000003b0: f39d 76bd 7add 233e a0ac a7be 672d 19bd
000003c0: 0c8d 523e bf06 303d 19ee f03c 8004 a03d
000003d0: 24d5 d23d bdcb 8e3d 9cbd 0dbe 4591 303d
000003e0: 6c94 653e 5b05 933d a851 153d 7edb af2a
000003f0: f41d fe3d 27c2 16bc b149 79be 7c9c e0ab

768 f4 [24]
-0.634584 -0.53722656 0.49323928 -0.2513476 0.980995 0.7415548 -0.09137212 0.12476742
0.6268603 -0.11344111 -0.34006122 0.3706076 0.3727638 -0.5912038 -1.4835747 1.3819885
0.124586046 -0.49725989 -1.2451824 0.28556502 -0.24053432 2.0314956 0.48971528 -0.19603473
00000000: 1974 22bf ae87 09bf dc89 fc3e a2b0 80be
00000010: 7d22 7b3f 89d6 3d3f 4e21 bbbd 1086 ff3d
00000020: eb79 203f d053 e8bd 811c aebe 48c0 bd3e
00000030: e6da be3e 2259 17bf c7e5 bdbf 00e5 b03f
00000040: f826 ff3d d998 febe 2362 9fbf 9435 923e
00000050: a14e 76be 0604 0240 f6bb fa3e 54bd 48be

770 f4 [24, 1, 3, 3]
-0.37562475 0.79813814 -0.25478664 -0.8696732 -0.33174035 -3.873454 0.06510071 1.9495747
1.856337 -0.2500909 -0.5283314 -0.43617815 -0.2833929 -0.79679793 -0.5497951 -0.058091834
-0.29786333 -0.10997359 0.21846305 0.18965435 0.31006378 0.7629878 0.8323198 0.60067546
0.59283257 0.9418453 0.7542407 0.5952329 0.8021397 0.56263757 0.69875145 1.277228
0.80174214 0.43608698 0.91633415 0.92236686 -0.093480125 1.3962569 -0.76487035 -0.3591895
1.3897184 -1.4404846 -0.23435603 1.2732941 -0.6672316 0.30011 -2.767635 2.7889953
0.83281255 -6.3675017 0.10539341 1.3433444 -0.75516605 2.826863 0.045292784 -0.20678574
-0.31624305 -0.15799823 -0.5052041 -0.64663225 -0.26645872 -0.4840546 -0.639301 -0.2125389
-0.35078314 -0.20072441 -0.26009062 -0.53876114 -0.38901794 -0.029418824 -0.3622104 -0.27938122
0.07314769 -0.19694488 -0.2772565 -0.38970506 -0.89352363 -0.55365515 -0.5404996 -1.008754
-0.65833426 0.07530836 0.32983702 0.2471683 0.1837794 0.59149694 0.5306914 -0.052805573
0.350725 0.25910154 -0.09862845 -0.16304612 -0.230499 -0.21510825 -0.53545016 -0.54801726
-0.16367993 -0.3343539 -0.110087365 0.16532777 0.34016368 0.5296385 0.11749111 0.81201255
0.8404834 0.109389335 0.43961328 0.13727021 0.60534513 1.8171246 -0.58351344 1.2690607
1.4072467 -0.80110663 0.035071507 0.17521916 -2.0591953 -0.27436355 -0.32031572 -0.2982994
-0.43469876 -0.9583452 -1.1133429 -0.2013925 -0.84656626 -1.1595834 -0.2518899 -0.36780828
-0.20170549 -0.28365564 -0.6978646 -0.5099999 -0.2864974 -0.80633473 -0.85210603 0.44552168
0.5077977 0.8717095 0.013243333 -1.9996231 -1.5898237 0.6271126 0.81726265 1.4593207
0.23747957 0.34821573 0.18832232 0.16554591 0.40016475 0.3781763 0.10503949 0.25650066
0.4690171 -0.575028 -0.61507356 -0.70877 -0.7048563 -1.0946375 -1.1680485 -0.6548682
-1.3943429 -1.2343944 0.029545506 -0.1376375 -0.06789907 -0.22539395 -0.49804324 -0.6789507
-0.09547622 -0.82751477 -0.85784566 0.0062681544 -0.22531193 -0.45771107 -0.09064148 -0.64214176
-0.8246471 -0.107417084 -0.6018955 -0.54551506 -0.14809409 -0.20830363 -0.21105286 -0.21077584
-0.46737903 -0.49944815 -0.09075115 -0.37909916 -0.3959983 -0.06828626 -0.087836534 -0.10691141
-0.1082012 -0.3300827 -0.44196016 -0.0700797 -0.31557405 -0.4178684 -0.70435727 -2.652097
-2.2268531 -0.14676581 -0.5590698 -0.43035576 0.9703362 3.273084 2.6690679 -0.27593213
-0.121895485 -0.07418035 -0.092445254 0.7087547 0.8340365 -0.04357388 1.2022101 1.7216572
00000000: e351 c0be c852 4c3f 6573 82be e7a2 5ebf
00000010: dfd9 a9be ace6 77c0 8553 853d aa8b f93f
00000020: 739c ed3f ea0b 80be ba40 07bf be52 dfbe
00000030: e018 91be f3fa 4bbf 5fbf 0cbf b4f1 6dbd
00000040: 8b81 98be d539 e1bd c7b4 5f3e c034 423e
00000050: aec0 9e3e 2b53 433f e912 553f dec5 193f
00000060: e0c3 173f c61c 713f eb15 413f 2f61 183f
00000070: 0759 4d3f 0409 103f 60e1 323f 357c a33f
00000080: f93e 4d3f cb46 df3e e094 6a3f 3c20 6c3f
00000090: 8272 bfbd 8cb8 b23f 8bce 43bf b0e7 b7be
000000a0: 4be2 b13f cd61 b8bf 07fb 6fbe 4dfb a23f
000000b0: b1cf 2abf 05a8 993e ef20 31c0 e67e 3240
000000c0: 3433 553f 93c2 cbc0 80d8 d73d b6f2 ab3f
000000d0: 9052 41bf 53eb 3440 ed84 393d a4bf 53be
000000e0: 9cea a1be 4aca 21be 0e55 01bf b189 25bf
000000f0: 476d 88be 01d6 f7be 3ba9 23bf cca3 59be
00000100: d999 b3be b38a 4dbe 992a 85be 40ec 09bf
00000110: 5c2d c7be bfff f0bc a473 b9be 0e0b 8fbe
00000120: 75ce 953d ebab 49be 90f4 8dbe 6c87 c7be
00000130: f7bd 64bf 58bc 0dbf 2f5e 0abf da1e 81bf
00000140: 9888 28bf 453b 9a3d 66e0 a83e b019 7d3e
00000150: ab30 3c3e 586c 173f 64db 073f a84a 58bd
00000160: 3a92 b33e f5a8 843e b6fd c9bd 90f5 26be
00000170: ee07 6cbe 5645 5cbe 4313 09bf dc4a 0cbf
00000180: b69b 27be 6f30 abbe 7c75 e1bd af4b 293e
00000190: ef29 ae3e 6496 073f 2e9f f03d 0ee0 4f3f
000001a0: ec29 573f 8407 e03d fe14 e13e 9090 0c3e
000001b0: e6f7 1a3f 8a97 e83f 2361 15bf 9570 a23f
000001c0: a920 b43f 5315 4dbf 24a7 0f3d a76c 333e
000001d0: dbc9 03c0 6179 8cbe 6c00 a4be b3ba 98be
000001e0: d690 debe 1c56 75bf 0582 8ebf d639 4ebe
000001f0: 91b8 58bf 3b6d 94bf b7f7 80be 5e51 bcbe
00000200: e28b 4ebe 503b 91be 41a7 32bf 5a8f 02bf
00000210: caaf 92be f46b 4ebf 9f23 5abf 6b1b e43e
00000220: 08ff 013f 5b28 5f3f 91fa 583c a6f3 ffbf
00000230: 587f cbbf 748a 203f 2038 513f 05cb ba3f
00000240: d82d 733e 5549 b23e 91d7 403e de84 293e
00000250: 65e2 cc3e 53a0 c13e f21e d73d 0e54 833e
00000260: 0223 f03e 0935 13bf 7675 1dbf f371 35bf
00000270: 7671 34bf 151d 8cbf 9d82 95bf 71a5 27bf
00000280: d479 b2bf a300 9ebf 6b09 f23c d8f0 0cbe
00000290: ab0e 8bbd accd 66be 86ff febe b7cf 2dbf
000002a0: 0989 c3bd 02d8 53bf c69b 5bbf 1765 cd3b
000002b0: 2cb8 66be 1b59 eabe 3ea2 b9bd 6763 24bf
000002c0: 131c 53bf 7dfd dbbd d315 1abf e0a6 0bbf
000002d0: faa5 17be 8c4d 55be 3e1e 58be 9fd5 57be
000002e0: 4e4c efbe abb7 ffbe bddb b9bd 4919 c2be
000002f0: 4ac0 cabe abd9 8bbd a4e3 b3bd 5ff4 dabd
00000300: 9798 ddbd 9a00 a9be 9a48 e2be f285 8fbd
00000310: ec92 a1be d9f2 d5be c250 34bf f5bb 29c0
00000320: c384 0ec0 c749 16be 331f 0fbf 9757 dcbe
00000330: f467 783f 357a 5140 02d2 2a40 fa46 8dbe
00000340: 57a4 f9bd deeb 97bd f053 bdbd f370 353f
00000350: 6b83 553f 867a 32bd 05e2 993f 435f dc3f

771 f4 [24]
0.08585778 0.51112413 -0.21304712 -0.24615426 -0.054667957 0.7552778 0.43617818 0.6238193
0.23480776 -0.5663644 0.19737943 -0.16940638 -0.5375203 0.10471502 0.097460024 -0.15270206
-0.4665871 0.0960762 0.12911731 0.29739934 0.37757033 0.32099673 -0.10503872 -0.14420049
00000000: 34d6 af3d 08d9 023f 0629 5abe dd0f 7cbe
00000010: 82eb 5fbd e359 413f bf52 df3e 9fb2 1f3f
00000020: 7271 703e 42fd 10bf d51d 4a3e de78 2dbe
00000030: ee9a 09bf d474 d63d 1f99 c73d ee5d 1cbe
00000040: 81e4 eebe 99c3 c43d 5437 043e ba44 983e
00000050: e650 c13e af59 a43e 8a1e d7bd 4ba9 13be

773 f4 [24, 24, 1, 1]
0.025404723 -0.04625307 0.051958956 0.063295566 -0.005297699 -0.047462486 -0.08165689 -0.114870526
0.007152004 0.14645433 0.2349324 -0.029902605 0.011909326 -0.099995315 0.0036066922 -0.013443892
0.07274336 -0.10236551 0.3005304 -0.1396684 -0.062260345 -0.10474986 0.06682625 0.049656402
-0.0016981981 -0.014805038 -0.0005289076 -0.026896225 -0.014360692 0.00031575665 0.033502888 0.011693292
0.06460711 -0.057478085 0.123423845 0.10704939 0.017133433 0.068603046 -0.027725842 -0.03521434
-0.022666456 -0.05679771 -0.094466925 0.08763653 0.08621064 0.03737074 -0.4678059 0.012217584
-0.1999664 0.06624091 0.22935429 -0.012463808 0.22449218 -0.3218979 0.15305877 -0.019797085
-0.23898508 -0.105169855 0.07477107 -0.1133492 0.029988667 0.094703965 0.017687662 -0.047910932
-0.0066962144 -0.017655224 -0.047429264 -0.015119074 0.1547477 0.10972778 0.076847315 0.011879955
0.122510046 0.039615244 0.15612672 -0.048830006 0.007992424 -0.07337186 -0.12161577 0.10894829
-0.28424817 0.2932945 0.27296287 0.033385627 -0.033972792 -0.19833806 -0.09760603 0.049101725
-0.1351287 -0.058927145 0.12706015 -0.14780073 -0.47651926 0.10535874 0.19317438 0.1082905
-0.011510839 0.10711381 0.020371668 0.17314567 0.005910415 0.012705483 0.19132777 0.1638249
-0.009438718 0.09490278 -0.011541519 -0.014219734 -0.18480861 -0.07909298 -0.036325563 0.018768635
0.19773358 0.2326356 -0.025098324 0.037709672 -0.15992905 0.03782821 -0.026299562 -0.043859217
0.02319809 0.14357527 -0.043094087 -0.037604142 0.021396045 0.043187186 -0.038159892 0.14905092
0.04004288 0.0410266 0.1729445 -0.09412425 0.009830412 0.015126696 -0.013680686 0.01940145
-0.09472722 0.06581173 0.0028592334 -0.025372483 -0.07814238 -0.052784145 0.088916615 -0.032290254
0.43514603 0.14776976 0.1444266 -0.0017365917 -0.18910033 -0.040339068 0.05279081 0.13547081
-0.16791184 0.09371203 0.04746223 0.06660684 0.019276945 -0.10218361 0.001390356 -0.19239457
0.00012553525 0.07769225 0.18525477 -0.12918785 0.04793552 0.104983866 -0.026181674 -0.009771466
-0.42855015 0.13001665 0.022038601 -0.02033828 0.13197629 0.28588971 0.019222619 -0.0016312215
-0.12123326 0.056547325 -0.23973134 0.23120356 0.018890642 0.097793505 -0.027805237 0.51757425
-0.0033186225 0.026683038 0.0060657943 -0.1497334 -0.06787314 0.08323108 -0.026128383 -0.1061381
-0.00936186 -0.013262847 -0.008676954 0.18751824 -0.0072683883 -0.0033308621 0.14637294 0.22566757
0.01744795 -0.014307268 0.0006277001 -0.036437616 0.036918033 -0.033403616 -0.01222777 -0.012814229
0.22024521 0.19151483 -0.01241642 -0.0010025738 -0.116997406 -0.008344571 -0.0024999254 -0.0036459493
0.03177301 0.08935651 -0.051526338 0.08038376 -0.018088607 0.010828702 0.01685694 -0.07964121
-0.024929363 0.16479406 -0.07964403 -0.047739457 0.032189805 -0.025005406 -0.18374677 -0.022747079
0.06527468 -0.052441195 0.013378619 -0.0020919812 0.050917514 0.08518811 -0.02670453 -0.09197017
-0.021512957 -0.13032846 0.0023185844 -0.025172548 0.029975964 -0.020988328 -0.037262756 0.05774301
-0.011171937 0.036290936 -0.039845057 0.02828394 -0.007904759 -0.078449935 -0.14677337 0.040612433
00000000: 911d d03c dc73 3dbd ead2 543d 1ba1 813d
00000010: 5298 adbb 0668 42bd ba3b a7bd 3d41 ebbd
00000020: 5c5b ea3b 20f8 153e 1e92 703e 4ff6 f4bc
00000030: 551f 433c 58ca ccbd 415e 6c3b c543 5cbc
00000040: 79fa 943d 02a5 d1bd 1fdf 993e 3c05 0fbe
00000050: b404 7fbd 1887 d6bd 33dc 883d 8364 4b3d
00000060: 1396 deba d590 72bc 63a6 0aba 7955 dcbc
00000070: 1c49 6bbc 248c a539 533a 093d 3995 3f3c
00000080: bc50 843d 246e 6bbd a4c5 fc3d b63c db3d
00000090: 6a5b 8c3c c17f 8c3d 4e21 e3bc e93c 10bd
000000a0: 01af b9bc b7a4 68bd e077 c1bd c87a b33d
000000b0: 348f b03d 1012 193d 4184 efbe 432c 483c
000000c0: fec3 4cbe 50a9 873d dadb 6a3e 0035 4cbc
000000d0: 47e1 653e cdcf a4be 70bb 1c3e 7f2d a2bc
000000e0: 81b8 74be 4b63 d7bd 9321 993d a023 e8bd
000000f0: cbaa f53c 27f4 c13d b7e5 903c 413e 44bd
00000100: eb6b dbbb b0a1 90bc 3045 42bd feb5 77bc
00000110: 2e76 1e3e f5b8 e03d 2062 9d3d 25a4 423c
00000120: 8ce6 fa3d 9843 223d afdf 1f3e f901 48bd
00000130: a8f2 023c fc43 96bd b011 f9bd 4820 df3d
00000140: fa88 91be b22a 963e cac1 8b3e 5ebf 083d
00000150: 0e27 0bbd 2219 4bbe ace5 c7bd e41e 493d
00000160: 2e5f 0abe 975d 71bd 0e1c 023e 1359 17be
00000170: 55fa f3be 53c6 d73d 81cf 453e 69c7 dd3d
00000180: f597 3cbc 7c5e db3d 7ce2 a63c 194d 313e
00000190: 28ac c13b a82a 503c 6deb 433e b7c1 273e
000001a0: daa4 1abc 645c c23d a418 3dbc e3f9 68bc
000001b0: 783e 3dbe 80fb a1bd 1dca 14bd aec0 993c
000001c0: ac7a 4a3e 0738 6e3e 009b cdbc 7575 1a3d
000001d0: 71c4 23be c1f1 1a3d 2e72 d7bc b9a5 33bd
000001e0: ec09 be3c 6505 133e 6d83 30bd cd06 1abd
000001f0: c246 af3c 0ce5 303d 8c4d 1cbd cea0 183e
00000200: 0104 243d 820b 283d 5d18 313e 37c4 c0bd
00000210: bd0f 213c f6d5 773c f524 60bc caef 9e3c
00000220: 5800 c2bd 4dc8 863d fa61 3b3b f4d9 cfbc
00000230: 1d09 a0bd 3034 58bd ea19 b63d c942 04bd
00000240: 76cb de3e f550 173e 91e4 133e 599e e3ba
00000250: 84a3 41be 943a 25bd 2d3b 583d dcb8 0a3e
00000260: 15f1 2bbe 18ec bf3d c167 423d 2b69 883d
00000270: afea 9d3c a445 d1bd 9b3c b63a 1503 45be
00000280: 1da2 0339 1d1d 9f3d 6db3 3d3e d249 04be
00000290: 0958 443d c801 d73d f37a d6bc 8018 20bc
000002a0: ed6a dbbe 1623 053e 4c8a b43c 779c a6bc
000002b0: cb24 073e 2360 923e c178 9d3c b6ce d5ba
000002c0: 2549 f8bd 2b9e 673d 227c 75be a0c0 6c3e
000002d0: 8cc0 9a3c f647 c83d cfc7 e3bc bf7f 043f
000002e0: 3f7d 59bb 6396 da3c 92c3 c63b b653 19be
000002f0: 1301 8bbd 0e75 aa3d 310b d6bc ef5e d9bd
00000300: 7d62 19bc 6a4c 59bc c829 0ebc c804 403e
00000310: a92b eebb 984a 5abb cae2 153e 6615 673e
00000320: 01ef 8e3c 0869 6abc 3e8c 243a 9c3f 15bd
00000330: 5d37 173d 3bd2 08bd fc56 48bc c6f2 51bc
00000340: f687 613e 771c 443e 3d6e 4bbc cb68 83ba
00000350: 569c efbd abb7 08bc cad5 23bb e1f0 6ebb
00000360: 6a24 023d 8c00 b73d 480d 53bd 3ea0 a43d
00000370: 8f2e 94bc de6a 313c 9117 8a3c ee1a a3bd
00000380: aa38 ccbc c6bf 283e 691c a3bd 738a 43bd
00000390: 75d9 033d 23d8 ccbc 1d28 3cbe 1558 babc
000003a0: bbae 853d 94cc 56bd ff31 5b3c 9f19 09bb
000003b0: e28e 503d 1b77 ae3d 75c3 dabc db5a bcbd
000003c0: f13b b0bc d374 05be 64f3 173b a936 cebc
000003d0: 2790 f53c b7ef abbc d5a0 18bd ef83 6c3d
000003e0: 800a 37bc cea5 143d 9234 23bd b9b3 e73c
000003f0: f682 01bc 5caa a0bd c24b 16be 3959 263d

774 f4 [24]
0.47971815 0.18350007 0.15165965 -0.13348989 0.6566457 0.38983804 0.27645856 -0.0049924613
-0.073853105 0.3216457 0.78719026 -0.027884629 0.69318795 0.059098847 0.48135635 0.18621697
0.25866207 -0.23553723 0.29881704 0.28604156 0.5810465 0.047852088 0.11772197 0.09924202
00000000: 9e9d f53e 71e7 3b3e ab4c 1b3e 93b1 08be
00000010: ef19 283f da98 c73e fa8b 8d3e cd97 a3bb
00000020: 4c40 97bd bfae a43e 4d85 493f 4e6e e4bc
00000030: c474 313f a211 723d 5774 f63e a9af 3e3e
00000040: 5b6f 843e ac30 71be 8cfe 983e 0a74 923e
00000050: 77bf 143f 8d00 443d 3718 f13d 663f cb3d

776 f4 [24, 24, 1, 1]
0.13621981 0.027878663 -0.0053197998 0.07980173 0.03007429 0.026611213 0.039698835 -0.069760054
0.010188825 0.0752797 0.04527893 0.13293083 0.030362928 0.11786604 0.23620763 -0.15147881
-0.33804005 -0.0639999 0.10479145 0.13271403 0.35433456 -0.2068588 0.08779705 0.055502325
0.012022126 -0.09144975 -0.31942302 0.06200534 -0.3224182 0.10320984 -0.7011173 -0.20413819
-0.24585311 0.28168267 0.16889456 0.21832831 -0.012417516 -0.040161382 -0.051716685 -0.047815137
0.06698768 0.07580541 -0.07983812 -0.047603585 -0.045317385 -0.12735732 -0.049900666 -0.012987727
0.4468716 0.0036388973 0.009831279 -0.010719648 0.16969542 -0.011850753 -0.0913766 -0.53220665
-0.07167774 -0.006471692 0.0766682 0.050251685 -0.037962344 0.00704723 -0.089841485 0.0514551
-0.023809168 0.013196195 0.005799407 -0.049520843 -0.03894984 0.019553483 -0.047269408 0.01840567
-0.07498831 -0.3086477 -0.003106339 0.3411648 -0.109458715 -0.12669557 -0.06004666 -0.080715865
0.09139588 -0.013275485 -0.03953402 0.067570604 0.15269454 -0.40906215 0.15553874 0.26462325
-0.47963777 0.08718139 -0.41515175 -0.04813679 0.034504548 -0.6638951 -0.19356355 -0.13334192
-0.00392304 -0.76165015 -0.055485666 -0.33215687 0.04462854 0.059495322 0.05555062 0.03376782
-0.046070006 0.15637366 -0.14680618 0.018647661 -0.025083598 0.11294819 0.0099220965 -0.029598892
-0.20842355 -0.027990408 0.0946609 -0.07591276 0.1519356 0.25183082 -0.13138947 0.06338414
-0.480424 0.023780245 0.07240893 0.0023174246 0.028296001 -0.06024428 0.15916668 0.6727414
0.063403316 -0.06931817 0.08910802 -0.048140787 0.014661855 0.07909152 -0.07881474 -0.07626848
-0.09010186 -0.023518963 0.09578013 -0.06650165 0.01081173 -0.0030644096 -0.009418232 0.090039216
0.0055047004 0.049180053 0.22008485 -0.21922077 0.07666924 0.34583554 -0.077475764 0.0081617525
-0.27368298 -0.4636741 0.030237122 0.08509811 0.4993501 -0.004295381 -0.079237536 -0.12719515
0.070006765 -0.16618669 0.16907506 -0.52499163 0.013056808 -0.1987432 0.046845473 -0.2736295
-0.26844606 -0.04255243 0.28193402 0.04568406 0.23147127 -0.23785529 -0.1660783 0.033141132
0.07387094 -0.1723515 0.006867777 -0.6351515 0.08709132 -0.046255324 0.0870995 0.010644704
0.08707954 0.06786387 0.011882931 0.0074877236 0.044979367 0.019699674 -0.012249782 -0.031827655
-0.06024898 -0.082946435 0.039010413 -0.21387014 0.07432112 0.21046282 0.05299345 0.16991271
0.15193744 -0.07617827 0.09054374 -0.050892517 0.33197135 -0.35456517 0.30941638 0.0028548462
0.31734613 -0.07354009 0.19188972 0.42956084 -0.19281858 0.35661748 -0.12819378 -0.004692542
0.024530752 -0.0873336 0.061396156 0.06933949 -0.0046414183 0.06488347 -0.08402953 0.117186315
-0.6408931 -0.48753667 -0.15972428 0.004134052 -0.5521865 -0.018853704 0.20265067 -0.103619605
0.2859029 -0.28351137 0.038008004 -0.002787823 0.057038505 -0.23267311 -0.083590366 -0.39967135
0.07001704 -0.08453772 0.1270849 0.10916647 -0.11741513 0.17503503 -0.059867546 0.14565046
-0.44866598 -0.24337354 0.11949556 -0.008266709 -0.34500465 0.21434279 0.0387581 0.13153845
00000000: 357d 0b3e cb61 e43c b751 aebb 176f a33d
00000010: 5c5e f63c c2ff d93c 3f9b 223d 5cde 8ebd
00000020: 08ef 263c 3e2c 9a3d 6676 393d 051f 083e
00000030: adbb f83c c063 f13d 6ae0 713e 431d 1bbe
00000040: 9613 adbe 6112 83bd e69c d63d 30e6 073e
00000050: 576b b53e cbd2 53be f1ce b33d 6856 633d
00000060: 73f8 443c 024a bbbd 6a8b a3be 50f9 7d3d
00000070: 0014 a5be ae5f d33d 6c7c 33bf 9a09 51be
00000080: ebc0 7bbe b638 903e b2f2 2c3e 7591 5f3e
00000090: d672 4bbc 4380 24bd e0d4 53bd ced9 43bd
000000a0: d630 893d de3f 9b3d 2b82 a3bd fafb 42bd
000000b0: b99e 39bd f569 02be a464 4cbd 7aca 54bc
000000c0: 5bcc e43e 917a 6e3b 5f13 213c 76a1 2fbc
000000d0: a3c4 2d3e a929 42bc a823 bbbd b23e 08bf
000000e0: c7cb 92bd 7d10 d4bb 3804 9d3d b6d4 4d3d
000000f0: 677e 1bbd 73ec e63b d0fe b7bd 95c2 523d
00000100: 720b c3bc da34 583c f408 be3b 5ed6 4abd
00000110: de89 1fbd a02e a03c 919d 41bd 7dc7 963c
00000120: 7993 99bd 1207 9ebe b893 4bbb 27ad ae3e
00000130: e42b e0bd 7cbc 01be 7df3 75bd 5c4e a5bd
00000140: c32d bb3d 6b81 59bc 6dee 21bd 7562 8a3d
00000150: f55b 1c3e 9870 d1be 8c45 1f3e b37c 873e
00000160: 1593 f5be 288c b23d c58e d4be 152b 45bd
00000170: a454 0d3d 07f5 29bf 8635 46be c98a 08be
00000180: d88c 80bb 81fb 42bf f044 63bd 7710 aabe
00000190: 6acc 363d 5eb1 733d 0c89 633d 2050 0a3d
000001a0: e7b3 3cbd 6b20 203e 5c54 16be fbc2 983c
000001b0: 1e7c cdbc 6151 e73d 4a90 223c 6079 f2bc
000001c0: fc6c 55be 244c e5bc 93dd c13d 2678 9bbd
000001d0: 0295 1b3e f8ef 803e f68a 06be 8bcf 813d
000001e0: 22fa f5be cace c23c 224b 943d efdf 173b
000001f0: 04cd e73c b5c2 76bd 97fc 223e c838 2c3f
00000200: 99d9 813d aff6 8dbd 447e b63d 462f 45bd
00000210: 4738 703c bcfa a13d 9f69 a1bd a632 9cbd
00000220: 5387 b8bd d7aa c0bc 5f28 c43d 0432 88bd
00000230: af23 313c 43d4 48bb ee4e 1abc 7b66 b83d
00000240: c660 b43b 0671 493d ec5d 613e 697b 60be
00000250: c304 9d3d 5b11 b13e 9dab 9ebd dfb8 053c
00000260: 2d20 8cbe b166 edbe d7b3 f73c eb47 ae3d
00000270: d1aa ff3e 44c0 8cbb 4a47 a2bd 723f 02be
00000280: b55f 8f3d d82c 2abe 0322 2d3e da65 06bf
00000290: 39ec 553c 5683 4bbe 0ae1 3f3d 2a19 8cbe
000002a0: c371 89be 754b 2ebd a859 903e 351f 3b3d
000002b0: ce06 6d3e 5690 73be 6e10 2abe ffbe 073d
000002c0: a649 973d e97c 30be 170b e13b 4a99 22bf
000002d0: ef5c b23d 3976 3dbd 3961 b23d 2067 2e3c
000002e0: c256 b23d 36fc 8a3d a0b0 423c 945b f53b
000002f0: 493c 383d 3661 a13c 4fb3 48bc b75d 02bd
00000300: a2c7 76bd d2df a9bd 62c9 1f3d c600 5bbe
00000310: ac35 983d 9183 573e a90f 593d 99fd 2d3e
00000320: 7d95 1b3e 5a03 9cbd ff6e b93d ac74 50bd
00000330: 26f8 a93e 9189 b5be d36b 9e3e 5f18 3b3b
00000340: 317b a23e 309c 96bd bd7e 443e 66ef db3e
00000350: 3c72 45be 9196 b63e 3b45 03be e5c3 99bb
00000360: b7f4 c83c f5db b2bd 897a 7b3d dd01 8e3d
00000370: 0a17 98bb a0e1 843d ad17 acbd 61ff ef3d
00000380: 9211 24bf 689e f9be c38e 23be f176 873b
00000390: 185c 0dbf 1573 9abc a883 4f3e 8436 d4bd
000003a0: dd61 923e 6728 91be 48ae 1b3d e9b3 36bb
000003b0: 35a1 693d dc41 6ebe 6d31 abbd b9a1 ccbe
000003c0: 1865 8f3d 1d22 adbd 8b22 023e ac92 df3d
000003d0: 5877 f0bd 623c 333e ac37 75bd 6525 153e
000003e0: 8cb7 e5be ea36 79be 17ba f43d 1771 07bc
000003f0: 73a4 b0be ad7c 5b3e d0c0 1e3d 04b2 063e

777 f4 [24]
0.1781294 0.22430366 0.28477407 0.6447236 0.3806602 0.07166014 0.14878322 0.015577268
-0.32251343 0.2783169 0.28801057 -0.17803642 0.5066538 -0.4685546 0.22010496 0.24001372
0.12933494 0.06564194 0.14968154 0.1521903 0.27510738 0.46132487 0.13127597 0.06806745
00000000: 8e67 363e dcaf 653e e8cd 913e 9b0c 253f
00000010: e5e5 c23e 8dc2 923d a15a 183e cc37 7f3c
00000020: 7b20 a5be 8d7f 8e3e 1f76 933e 2e4f 36be
00000030: 10b4 013f 63e6 efbe 3263 613e 28c6 753e
00000040: 6170 043e 486f 863d 1e46 193e c6d7 1b3e
00000050: e0da 8c3e c632 ec3e 356d 063e f266 8b3d
